Statistical_Inference/STATINF-016-Run-bootstrap-resampling-to-estimate/evidence/bootstrap_weights.npy (npy, 40128 bytes, 1 tensors)

array f8 [100, 50]
000000 7c 4e 39 8c cc ae d6 bf 6a 71 ae 3a 22 c0 eb 3f
       -0.3544188851712773 0.8672038217660376
000010 40 3c 6e 71 91 ce a6 3f 18 4d 0e c5 8d 90 eb 3f
       0.044544739815244316 0.8613957260844556
000020 11 e2 14 16 a2 66 d5 3f de d8 09 87 74 84 f0 bf
       0.33438923031238327 -1.0323376917781881
000030 0e da 34 2e 13 f9 fc bf 32 8d e7 62 f8 0e b5 3f
       -1.81080930756946 0.08225967802677728
000040 16 76 d8 7d b5 bc f6 bf 4a 73 d4 2f 01 18 e1 3f
       -1.421071521362483 0.5341802534272599
000050 bb 90 bc c1 94 f0 c2 bf 3c 58 54 2f 19 41 e5 bf
       -0.14796695194048035 -0.6641965793994653
000060 ab 5e e0 04 41 41 ed bf ce 1a d2 ed 8d 61 f0 3f
       -0.9142155738108689 1.0238169946548399
000070 e2 27 2d 11 05 9e f1 bf 44 0c 87 c1 cd 9b fa 3f
       -1.1010790511086204 1.6630380210560967
000080 9c 93 28 52 f9 c5 e1 bf 20 46 5e a5 f1 78 f6 3f
       -0.5554167370470284 1.4045273265550193
000090 57 28 c6 e7 09 48 ec 3f 9e b2 84 01 72 87 d5 3f
       0.8837937857472394 0.33639192722584166
0000a0 1e ab 1b 6f 52 01 ea bf 2b 81 9f 8e 2e 01 ff bf
       -0.8126613779143985 -1.937788540955874
0000b0 ad ac bc 69 ed ec d6 bf 3b 62 ba 7d e7 43 ee 3f
       -0.3582109005535113 0.9457890945078086
0000c0 70 c1 f9 93 b4 81 e7 3f b8 c2 09 6a 14 ee ed 3f
       0.7345831766270248 0.9353124686295677
0000d0 a1 51 91 54 15 6e d2 bf a9 f5 d4 fe 80 ef e3 3f
       -0.28796895273742434 0.622986314505103
0000e0 9a 8d 9a c7 9e 05 b6 bf f7 f3 1c d7 5a 0c ca 3f
       -0.08602325795305035 0.20350203994340152
0000f0 e4 55 28 25 d4 d1 d4 3f 56 61 fd b3 ee 53 f6 bf
       0.3253069270006945 -1.3954913168764356
000100 9e 06 ae 66 9c 76 df bf 55 e3 e2 f2 be d3 e3 3f
       -0.4916144373638448 0.6195978874085123
000110 d3 e2 50 8a d2 f8 df bf a2 6b f8 b0 f2 3e f8 3f
       -0.4995619154683883 1.515368167200656
000120 72 ae 09 a6 50 0a e6 3f 98 90 ed 94 51 65 f7 bf
       0.6887591593671927 -1.4622360055446162
000130 ff b4 59 fc 56 e0 b3 3f e8 0e 44 ad cc 3f ea 3f
       0.07764190350436094 0.820288027200573
000140 8d 3c 68 de 4e cd d1 3f 3a 64 2c 1c c3 2e f0 bf
       0.27815601081324176 -1.011416540195809
000150 2b 26 47 c1 09 35 ee bf 35 d4 47 b0 90 43 b7 bf
       -0.9439743781051154 -0.09087471297955647
000160 00 f0 89 a8 ee c8 e8 3f c4 eb 27 88 c9 df e3 3f
       0.7745278636716648 0.6210677775665023
000170 4b 16 94 84 cc 42 e7 3f 4b db 14 2a 34 97 ea bf
       0.7269041623519085 -0.8309574911025747
000180 01 8e b4 b3 12 64 f2 3f ac ec db eb 3a dd ed 3f
       1.1494318980920755 0.9332556349394472
000190 eb 1f fc f4 39 c4 fb 3f 19 e4 ed 6f 4f 4f da 3f
       1.735406834575765 0.41109071665374725
0001a0 47 94 9f 75 9b a0 f8 bf 96 ca 59 b7 ad 14 f0 3f
       -1.539210757700191 1.005048481191499
0001b0 34 e3 74 bc e9 e1 f5 bf 30 56 34 ff 73 2d d3 3f
       -1.367654548796236 0.2996492378455029
0001c0 d4 51 ef 7d eb 67 c6 3f d0 2c 2b e0 ce c4 f2 3f
       0.17504638337290024 1.1730488545024862
0001d0 46 72 ea 17 1e c9 f0 3f 96 ca b4 a6 df 58 f5 3f
       1.049100964947813 1.3341976654016086
0001e0 85 2f 40 b7 71 67 e2 3f 1d a0 61 03 7c 98 e0 bf
       0.5751274661174511 -0.5186138216058712
0001f0 88 c3 2e f0 72 48 a1 bf f7 34 f9 89 a2 47 ff bf
       -0.03375586683194515 -1.9549889936054663
000200 a9 b8 ef 40 a9 1d e2 3f aa 51 8b 13 98 47 92 bf
       0.5661207454957281 -0.01785123461998387
000210 2b 70 1f b6 7d 43 cd 3f f0 25 10 33 ad 11 a5 3f
       0.2286221637031088 0.04115048645332908
000220 4e 06 01 f4 66 e8 c9 bf c6 0f f2 0a fe a6 b3 bf
       -0.20240485109575207 -0.07676685111260814
000230 8f 4a 2a 2f ce d0 c2 bf 90 a3 c3 70 35 cf f3 3f
       -0.1469972353266553 1.2380880741932039
000240 07 5d dd e9 7d 00 a7 3f 7e 22 fb b2 10 24 d8 bf
       0.04492562751573286 -0.37720124701130675
000250 ab 00 ce f1 ff 34 f1 3f 74 ca fe 1f 0e 26 fa bf
       1.075439400243378 -1.6342908143821235
000260 8f 37 82 ab 1d 19 d2 3f 7f 5b af fe ef a4 f4 3f
       0.282782952774931 1.290267939437143
000270 fd 95 32 d8 f9 7f e0 3f 50 d5 20 51 e0 5f db 3f
       0.5156220648393056 0.42772682116204397
000280 0d af 94 e4 38 07 04 c0 e3 0f 53 9f 9c 0d cc bf
       -2.5035264833330815 -0.2191653993560286
000290 2b 10 7a fb 09 05 a9 3f 9a c4 6c 67 48 23 de 3f
       0.048866569469311415 0.4709034929283661
0002a0 cf 40 6c fe 1f b2 e2 bf 29 b9 8c 2e b9 05 e5 bf
       -0.5842437714764176 -0.6569486531423411
0002b0 98 c4 5e ba a5 ce e8 3f c2 a7 5d a4 33 37 e3 3f
       0.7752255096476288 0.6004884920378049
0002c0 ff 7b b0 87 fc cc ec bf e6 14 a5 58 f5 b7 fb 3f
       -0.900022759455055 1.7324117148103197
0002d0 4a 88 01 ee cb c8 dd 3f 46 4f e4 e6 8d 87 e9 bf
       0.46538065188190514 -0.7977971562963624
0002e0 cf fa 21 c6 7b 8c af bf 5a 7d dd 95 81 dc f4 bf
       -0.061618678985714596 -1.3038345197781696
0002f0 ad a8 61 e4 c7 90 df 3f 2f a7 b3 da b3 2b f9 3f
       0.4932117204940692 1.573169569305218
000300 11 37 60 8f 19 b6 f1 3f f3 28 4f c4 91 60 f6 bf
       1.1069579697245369 -1.3985765140847064
000310 03 f4 95 3b 9e 37 f2 3f 38 de 3d e8 b0 77 f9 bf
       1.1385786368912256 -1.5917214462223352
000320 82 22 52 e4 52 01 dd 3f 4f 21 c0 e8 a5 dd d7 3f
       0.453205798120088 0.37290332536260434
000330 34 cf 68 4f e8 c5 f3 3f c0 c8 25 d9 44 27 de 3f
       1.2358172513895171 0.47114678579158564
000340 08 e5 c2 9b dc d7 f6 3f e3 77 e1 c8 f6 53 f2 3f
       1.427700622980696 1.1454990240958913
000350 fb fb ec d8 3e 20 ee bf 98 5e 7b 17 50 24 f6 3f
       -0.9414362179594485 1.383865443922252
000360 a2 25 9b d7 5d 49 e2 3f 63 52 34 ec d0 78 fa bf
       0.571455880265763 -1.6544961191877057
000370 24 dc ed f8 a2 6a f5 bf fa 86 65 f8 b9 d1 b2 3f
       -1.3385343288225693 0.07351267160768407
000380 a5 f9 16 33 a5 cf f0 bf d0 2a 94 3f 13 1e ff 3f
       -1.050694655961345 1.9448425754114176
000390 c8 30 6d f1 cb 0e 01 c0 c6 2d a6 0a 32 b8 f0 3f
       -2.132224928040248 1.0449695983869431
0003a0 a3 ed 55 f0 39 ab e1 bf d3 ff 81 1b 36 51 e0 bf
       -0.5521516508155638 -0.5099134957563315
0003b0 12 71 da 8f 10 f0 d2 3f c9 65 a9 24 a8 8f da 3f
       0.29590238617108 0.4150181158089166
0003c0 3a 18 0b b1 97 0e d8 bf e8 c5 ca 0f ce 34 f7 3f
       -0.3758906582774021 1.4503918282392707
0003d0 62 ed a2 0f 49 46 c1 3f 2a ae e4 ab e4 9c c3 bf
       0.1349574400281695 -0.1532255019495648
0003e0 40 9d 4b 8c 42 81 cd 3f f8 78 2a 7c c6 11 03 c0
       0.2305072007213571 -2.3836793613874043
0003f0 c0 4e d8 88 3a fb ed 3f 1a d8 0d dc b7 dc e7 3f
       0.9369175598862611 0.7456931398326134
000400 5a 40 e1 e9 75 e5 f3 3f 5e 64 98 27 38 7e 85 3f
       1.243520654290498 0.010494650562622162
000410 13 a8 42 fe 86 67 95 3f c6 a6 a7 13 7c df d2 bf
       0.020902737873861165 -0.29489042205259997
000420 95 36 a4 40 73 7b bd 3f 24 b9 96 10 f6 dd dd bf
       0.11516495063934891 -0.466672435951198
000430 07 de d4 5d 72 97 f0 3f 99 f5 9b bb 7f c0 ef 3f
       1.036974302796695 0.9922484077684884
000440 cb 61 19 8a 10 27 bc bf f1 f9 d4 5f c5 80 cd bf
       -0.10997107860146753 -0.2304922788552655
000450 3d 0c 3c d4 2f 59 ed 3f 91 2a 5f 70 b4 97 02 c0
       0.9171370644766125 -2.3240746287386362
000460 11 54 39 c5 6f d1 e2 bf 0b 36 02 ae 3c 24 e1 3f
       -0.5880659915952738 0.5356734655958361
000470 76 25 ae 6c 60 7d e6 bf fd 34 e9 2b 02 7c ec 3f
       -0.702804767862445 0.890137754214862
000480 3d e4 d7 95 a5 74 02 40 67 cd 8b 44 03 b2 f8 3f
       2.3069564539441942 1.5434601476270815
000490 d1 7d 29 0e 0e b1 fa 3f 01 3d 5c 7d 76 ae a2 3f
       1.6682262948232742 0.0364872959163396
0004a0 2f bf 71 2e 33 1f e1 3f 95 06 10 19 a4 5b ec bf
       0.5350585848918622 -0.8861866464141764
0004b0 b7 a3 fc d4 fb 77 ee bf b5 81 9c 7e cf f7 da 3f
       -0.952146450033175 0.42137515415563637
0004c0 e5 a9 94 a6 45 8b d5 3f ca a8 32 bb 3e b4 d9 3f
       0.3366254927410906 0.4016262844185233
0004d0 77 97 b1 2d 65 97 f8 3f 5f 92 c8 20 51 71 f4 bf
       1.5369617257033192 -1.2776652603726217
0004e0 f4 fb 1a b4 48 7e fa 3f 71 8c eb e2 e8 51 f0 3f
       1.6558310542457066 1.019997488409697
0004f0 26 e5 86 16 da 65 e0 3f 9f 85 53 e1 ed 28 f5 3f
       0.5124330940226727 1.3224924852187099
000500 b6 ac 0e 1f a3 41 f8 bf 25 fc 8f 5b ed 93 e6 3f
       -1.5160247052361178 0.705557516892331
000510 77 ac 1e fd 4d b1 f8 3f f7 46 d7 22 86 7e 37 bf
       1.5432872664921697 -0.000358493564673087
000520 ea 39 01 9f b6 e7 e1 bf a9 4b 18 2b c4 81 ed 3f
       -0.5595353227197937 0.9220906106660226
000530 94 d2 41 b7 c4 aa ba 3f 40 ea 39 34 f7 43 ed bf
       0.10416821931887404 -0.9145465869945113
000540 f9 93 2e e8 23 6b da 3f e3 bb 34 6e a8 54 f3 3f
       0.4127893226053057 1.2081684403344688
000550 31 4c 70 09 23 b5 ed bf f6 32 70 6d 4e d4 f4 bf
       -0.9283614334439162 -1.3018326067860335
000560 6c e5 21 1d ac b3 e4 3f 8c 90 ea 39 28 fd f1 3f
       0.6469326561920474 1.124305940852568
000570 df e6 a1 f4 c1 dc a9 3f 0b da b5 b3 9f da 94 3f
       0.050512372124058784 0.02036523374905567
000580 d3 3a 9f 22 ae 6c aa bf 67 c5 49 f5 83 be ca bf
       -0.05161041424400072 -0.2089390704818854
000590 38 dc b5 12 8a e5 ea bf 27 61 b1 b7 9c 1a fa 3f
       -0.840519939941152 1.6314971137526955
0005a0 46 22 1f 2d 04 86 e4 bf f8 5d 44 a6 36 8e dd bf
       -0.6413594132691933 -0.4618050216390368
0005b0 58 c9 75 cb 57 79 c2 3f 00 90 f5 a2 22 4e ea bf
       0.14432809290480964 -0.8220380003735954
0005c0 e3 59 cf e0 06 1e ef bf 65 42 1c 05 28 dd eb 3f
       -0.9724153891391406 0.8707466220676677
0005d0 a6 21 b5 4a 1d 34 02 c0 dd df c6 b8 65 b1 e6 3f
       -2.2754464947249344 0.7091549500391882
0005e0 97 22 bd 72 11 47 c3 3f 67 b6 43 a5 02 bc e0 bf
       0.1506063280342189 -0.5229504802534394
0005f0 de e4 c6 c9 7a 97 e8 3f 71 40 89 67 41 62 de bf
       0.7684911671596202 -0.47474703894568565
000600 51 24 bf 38 37 00 ed bf 12 0f c9 c8 47 23 e4 3f
       -0.9062763317425696 0.6293066903676581
000610 80 98 e8 ee dd 9c ec bf c3 ba ec 16 69 f3 ae bf
       -0.8941487947638649 -0.06045082478373367
000620 2e d6 f3 29 9b 89 02 40 f2 3c 03 e5 92 4f bb 3f
       2.3171904828584706 0.10668294993523711
000630 e0 77 d6 a1 3b 8b f3 3f cb 05 c1 e6 ee e8 e7 bf
       1.22149241655233 -0.7471842295564611
000640 ae 83 f3 87 66 3e f3 bf 4f 40 e9 92 41 e4 f3 3f
       -1.2027344999880643 1.2432265986172018
000650 87 6a 4d c4 df e2 e1 bf 15 db 32 1c 94 71 cd 3f
       -0.558944590953005 0.2300286424340007
000660 d8 3a 61 7f 51 ea ee 3f ec ee 18 df 55 54 e3 3f
       0.9661033141981887 0.6040448529597291
000670 b3 ff ee d1 83 45 c9 3f 34 95 29 ff 76 96 f5 3f
       0.19743392706550153 1.3492345778734718
000680 5d ee 0a 66 05 97 d4 3f 6d 81 81 53 ba 78 e9 bf
       0.32171759572131525 -0.7959872847532502
000690 50 24 c3 18 b6 ae f1 3f 72 6a d6 3e b1 9e e1 3f
       1.1051541297222407 0.5506216265960815
0006a0 b0 64 37 6d 73 24 ee 3f 86 80 31 be da 2f d2 3f
       0.941949570954554 0.2841708047253707
0006b0 9c 30 a7 90 4d d9 ee 3f 5e 1f 92 a4 1f 01 f6 bf
       0.9640262437110496 -1.3752743176027802
0006c0 10 f8 0d 39 2e d9 00 40 c4 2a 43 6c 47 16 e0 bf
       2.1060451943767546 -0.5027196039676132
0006d0 28 0d 1d 43 b6 16 cb bf 8d 56 cc 2a 44 3f f3 3f
       -0.21163061406159867 1.2029458686642187
0006e0 79 d0 e1 6a 93 4b fe bf 7f 20 f8 37 48 a7 a9 bf
       -1.8934511351663146 -0.05010438616960843
0006f0 3d b8 9e 16 6a 4d ef 3f 6a f5 70 9d 4e 7b c7 bf
       0.9782000009343005 -0.18345053374825265
000700 c9 57 01 d0 d0 0b e1 bf 7b b3 b3 e8 73 4c fa 3f
       -0.5326923430063683 1.643665226928731
000710 25 fb fb 94 ea 0f aa 3f a6 c7 ab 19 17 5e c7 bf
       0.05090268200546281 -0.18255890611140763
000720 70 d8 f4 ea 06 ab dc 3f 18 6a c4 17 41 5d f4 3f
       0.44793866105044966 1.2727671554954494
000730 85 ba ac 18 8d 46 fe 3f 71 56 cd e2 c8 76 d9 3f
       1.8922244037491123 0.39787504337923624
000740 9f 95 69 b6 b0 1d ff bf 5a 0c 7e fa 0f a6 d8 bf
       -1.944748604343978 -0.38513564550539103
000750 ca b4 0e c3 31 d5 e9 3f 8a 44 5d 9c 10 3a 72 3f
       0.8072747049060578 0.00444990624039677
000760 25 28 2e 2c 8d ea ed 3f d0 f1 5f 1c db 27 c9 bf
       0.9348817694565282 -0.19652880559432484
000770 a3 2c e1 58 aa fa ba 3f 69 ae 27 5d 26 39 d0 3f
       0.10538735074912835 0.253488150569615
000780 fb 99 2b 72 b7 7b cd 3f a9 eb 8c d9 d6 f7 db bf
       0.2303380305740602 -0.4370019077793424
000790 00 8e 73 9e f6 ae e1 bf e6 86 bd 04 7a 48 d2 bf
       -0.5526078314546226 -0.2856736227314357
0007a0 93 69 c9 81 36 92 cb 3f 07 76 60 59 96 1a b7 bf
       0.21539956414455882 -0.0902494400219994
0007b0 59 7a 54 3b fc a1 df 3f b7 54 6e 86 96 c0 5e 3f
       0.4942617968935444 0.0018769712421307491
0007c0 04 4f 84 3d 15 36 dd 3f 60 d7 35 e2 fb 03 02 c0
       0.45642596251967427 -2.251945273655039
0007d0 a5 ad bb e6 ee 0e e4 3f 5b 22 69 f7 19 d6 ee bf
       0.626822901392576 -0.9636354286422589
0007e0 66 1b b2 ec 34 8f f1 bf 6a 04 97 2d 31 83 e4 3f
       -1.097462582199762 0.6410146608760787
0007f0 fc 3b ce db 97 09 f1 bf 20 33 c0 f5 c8 40 be bf
       -1.064842089286457 -0.11817604064726739
